…
2025-09-03 08:51:52 | INFO | __main__ | Arguments in command:
{'eval_path': '', 'gpus': '0,1,2,3', 'num_workers': 1, 'resume': ''}
/SMIIPdata2/zxp/anaconda3/envs/antispoofing/lib/python3.10/site-packages/torch/nn/utils/weight_norm.py:143: FutureWarning: `torch.nn.utils.weight_norm` is deprecated in favor of `torch.nn.utils.parametrizations.weight_norm`.
  WeightNorm.apply(module, name, dim)
2025-09-03 08:52:43 | INFO | /SMIIPdata2/zxp/composition_antispoofing/Unet/weight/batch_64_epoch_100/trainer.log | Model summary:
Model(
  (spar): UNetSTFTComplexRefine(
    (unet_speech): UNet2D(
      (inc): DoubleConv(
        (net): Sequential(
          (0): Conv2d(1, 32, kernel_size=(3, 3), stride=(1, 1), padding=(1, 1), bias=False)
          (1): BatchNorm2d(32, eps=1e-05, momentum=0.1, affine=True, track_running_stats=True)
          (2): ReLU(inplace=True)
          (3): Conv2d(32, 32, kernel_size=(3, 3), stride=(1, 1), padding=(1, 1), bias=False)
          (4): BatchNorm2d(32, eps=1e-05, momentum=0.1, affine=True, track_running_stats=True)
          (5): ReLU(inplace=True)
        )
      )
      (down): ModuleList(
        (0): Down(
          (pool): MaxPool2d(kernel_size=2, stride=2, padding=0, dilation=1, ceil_mode=False)
          (conv): DoubleConv(
            (net): Sequential(
              (0): Conv2d(32, 64, kernel_size=(3, 3), stride=(1, 1), padding=(1, 1), bias=False)
              (1): BatchNorm2d(64, eps=1e-05, momentum=0.1, affine=True, track_running_stats=True)
              (2): ReLU(inplace=True)
              (3): Conv2d(64, 64, kernel_size=(3, 3), stride=(1, 1), padding=(1, 1), bias=False)
              (4): BatchNorm2d(64, eps=1e-05, momentum=0.1, affine=True, track_running_stats=True)
              (5): ReLU(inplace=True)
            )
          )
        )
        (1): Down(
          (pool): MaxPool2d(kernel_size=2, stride=2, padding=0, dilation=1, ceil_mode=False)
          (conv): DoubleConv(
            (net): Sequential(
              (0): Conv2d(64, 128, kernel_size=(3, 3), stride=(1, 1), padding=(1, 1), bias=False)
              (1): BatchNorm2d(128, eps=1e-05, momentum=0.1, affine=True, track_running_stats=True)
              (2): ReLU(inplace=True)
              (3): Conv2d(128, 128, kernel_size=(3, 3), stride=(1, 1), padding=(1, 1), bias=False)
              (4): BatchNorm2d(128, eps=1e-05, momentum=0.1, affine=True, track_running_stats=True)
              (5): ReLU(inplace=True)
            )
          )
        )
      )
      (up): ModuleList(
        (0): Up(
          (up): ConvTranspose2d(128, 64, kernel_size=(2, 2), stride=(2, 2))
          (conv): DoubleConv(
            (net): Sequential(
              (0): Conv2d(128, 64, kernel_size=(3, 3), stride=(1, 1), padding=(1, 1), bias=False)
              (1): BatchNorm2d(64, eps=1e-05, momentum=0.1, affine=True, track_running_stats=True)
              (2): ReLU(inplace=True)
              (3): Conv2d(64, 64, kernel_size=(3, 3), stride=(1, 1), padding=(1, 1), bias=False)
              (4): BatchNorm2d(64, eps=1e-05, momentum=0.1, affine=True, track_running_stats=True)
              (5): ReLU(inplace=True)
            )
          )
        )
        (1): Up(
          (up): ConvTranspose2d(64, 32, kernel_size=(2, 2), stride=(2, 2))
          (conv): DoubleConv(
            (net): Sequential(
              (0): Conv2d(64, 32, kernel_size=(3, 3), stride=(1, 1), padding=(1, 1), bias=False)
              (1): BatchNorm2d(32, eps=1e-05, momentum=0.1, affine=True, track_running_stats=True)
              (2): ReLU(inplace=True)
              (3): Conv2d(32, 32, kernel_size=(3, 3), stride=(1, 1), padding=(1, 1), bias=False)
              (4): BatchNorm2d(32, eps=1e-05, momentum=0.1, affine=True, track_running_stats=True)
              (5): ReLU(inplace=True)
            )
          )
        )
      )
      (outc): OutConv(
        (proj): Conv2d(32, 2, kernel_size=(1, 1), stride=(1, 1))
      )
    )
  )
  (ssl_model): SSLModel(
    (model): Wav2Vec2Model(
      (feature_extractor): ConvFeatureExtractionModel(
        (conv_layers): ModuleList(
          (0): Sequential(
            (0): Conv1d(1, 512, kernel_size=(10,), stride=(5,))
            (1): Dropout(p=0.0, inplace=False)
            (2): Sequential(
              (0): TransposeLast()
              (1): Fp32LayerNorm((512,), eps=1e-05, elementwise_affine=True)
              (2): TransposeLast()
            )
            (3): GELU(approximate='none')
          )
          (1-4): 4 x Sequential(
            (0): Conv1d(512, 512, kernel_size=(3,), stride=(2,))
            (1): Dropout(p=0.0, inplace=False)
            (2): Sequential(
              (0): TransposeLast()
              (1): Fp32LayerNorm((512,), eps=1e-05, elementwise_affine=True)
              (2): TransposeLast()
            )
            (3): GELU(approximate='none')
          )
          (5-6): 2 x Sequential(
            (0): Conv1d(512, 512, kernel_size=(2,), stride=(2,))
            (1): Dropout(p=0.0, inplace=False)
            (2): Sequential(
              (0): TransposeLast()
              (1): Fp32LayerNorm((512,), eps=1e-05, elementwise_affine=True)
              (2): TransposeLast()
            )
            (3): GELU(approximate='none')
          )
        )
      )
      (post_extract_proj): Linear(in_features=512, out_features=1024, bias=True)
      (dropout_input): Dropout(p=0.0, inplace=False)
      (dropout_features): Dropout(p=0.0, inplace=False)
      (quantizer): GumbelVectorQuantizer(
        (weight_proj): Linear(in_features=512, out_features=640, bias=True)
      )
      (project_q): Linear(in_features=768, out_features=768, bias=True)
      (encoder): TransformerEncoder(
        (pos_conv): Sequential(
          (0): Conv1d(1024, 1024, kernel_size=(128,), stride=(1,), padding=(64,), groups=16)
          (1): SamePad()
          (2): GELU(approximate='none')
        )
        (layers): ModuleList(
          (0-23): 24 x TransformerSentenceEncoderLayer(
            (self_attn): MultiheadAttention(
              (dropout_module): FairseqDropout()
              (k_proj): Linear(in_features=1024, out_features=1024, bias=True)
              (v_proj): Linear(in_features=1024, out_features=1024, bias=True)
              (q_proj): Linear(in_features=1024, out_features=1024, bias=True)
              (out_proj): Linear(in_features=1024, out_features=1024, bias=True)
            )
            (dropout1): Dropout(p=0.0, inplace=False)
            (dropout2): Dropout(p=0.0, inplace=False)
            (dropout3): Dropout(p=0.0, inplace=False)
            (self_attn_layer_norm): LayerNorm((1024,), eps=1e-05, elementwise_affine=True)
            (fc1): Linear(in_features=1024, out_features=4096, bias=True)
            (fc2): Linear(in_features=4096, out_features=1024, bias=True)
            (final_layer_norm): LayerNorm((1024,), eps=1e-05, elementwise_affine=True)
          )
        )
        (layer_norm): LayerNorm((1024,), eps=1e-05, elementwise_affine=True)
      )
      (layer_norm): LayerNorm((512,), eps=1e-05, elementwise_affine=True)
      (final_proj): Linear(in_features=1024, out_features=768, bias=True)
    )
  )
  (aasist_all): XLSR2_AASIST(
    (ssl_model): SSLModel(
      (model): Wav2Vec2Model(
        (feature_extractor): ConvFeatureExtractionModel(
          (conv_layers): ModuleList(
            (0): Sequential(
              (0): Conv1d(1, 512, kernel_size=(10,), stride=(5,))
              (1): Dropout(p=0.0, inplace=False)
              (2): Sequential(
                (0): TransposeLast()
                (1): Fp32LayerNorm((512,), eps=1e-05, elementwise_affine=True)
                (2): TransposeLast()
              )
              (3): GELU(approximate='none')
            )
            (1-4): 4 x Sequential(
              (0): Conv1d(512, 512, kernel_size=(3,), stride=(2,))
              (1): Dropout(p=0.0, inplace=False)
              (2): Sequential(
                (0): TransposeLast()
                (1): Fp32LayerNorm((512,), eps=1e-05, elementwise_affine=True)
                (2): TransposeLast()
              )
              (3): GELU(approximate='none')
            )
            (5-6): 2 x Sequential(
              (0): Conv1d(512, 512, kernel_size=(2,), stride=(2,))
              (1): Dropout(p=0.0, inplace=False)
              (2): Sequential(
                (0): TransposeLast()
                (1): Fp32LayerNorm((512,), eps=1e-05, elementwise_affine=True)
                (2): TransposeLast()
              )
              (3): GELU(approximate='none')
            )
          )
        )
        (post_extract_proj): Linear(in_features=512, out_features=1024, bias=True)
        (dropout_input): Dropout(p=0.0, inplace=False)
        (dropout_features): Dropout(p=0.0, inplace=False)
        (quantizer): GumbelVectorQuantizer(
          (weight_proj): Linear(in_features=512, out_features=640, bias=True)
        )
        (project_q): Linear(in_features=768, out_features=768, bias=True)
        (encoder): TransformerEncoder(
          (pos_conv): Sequential(
            (0): Conv1d(1024, 1024, kernel_size=(128,), stride=(1,), padding=(64,), groups=16)
            (1): SamePad()
            (2): GELU(approximate='none')
          )
          (layers): ModuleList(
            (0-23): 24 x TransformerSentenceEncoderLayer(
              (self_attn): MultiheadAttention(
                (dropout_module): FairseqDropout()
                (k_proj): Linear(in_features=1024, out_features=1024, bias=True)
                (v_proj): Linear(in_features=1024, out_features=1024, bias=True)
                (q_proj): Linear(in_features=1024, out_features=1024, bias=True)
                (out_proj): Linear(in_features=1024, out_features=1024, bias=True)
              )
              (dropout1): Dropout(p=0.0, inplace=False)
              (dropout2): Dropout(p=0.0, inplace=False)
              (dropout3): Dropout(p=0.0, inplace=False)
              (self_attn_layer_norm): LayerNorm((1024,), eps=1e-05, elementwise_affine=True)
              (fc1): Linear(in_features=1024, out_features=4096, bias=True)
              (fc2): Linear(in_features=4096, out_features=1024, bias=True)
              (final_layer_norm): LayerNorm((1024,), eps=1e-05, elementwise_affine=True)
            )
          )
          (layer_norm): LayerNorm((1024,), eps=1e-05, elementwise_affine=True)
        )
        (layer_norm): LayerNorm((512,), eps=1e-05, elementwise_affine=True)
        (final_proj): Linear(in_features=1024, out_features=768, bias=True)
      )
    )
    (LL): Linear(in_features=1024, out_features=128, bias=True)
    (first_bn): BatchNorm2d(1, eps=1e-05, momentum=0.1, affine=True, track_running_stats=True)
    (first_bn1): BatchNorm2d(64, eps=1e-05, momentum=0.1, affine=True, track_running_stats=True)
    (drop): Dropout(p=0.5, inplace=True)
    (drop_way): Dropout(p=0.2, inplace=True)
    (selu): SELU(inplace=True)
    (encoder): Sequential(
      (0): Sequential(
        (0): Residual_block(
          (conv1): Conv2d(1, 32, kernel_size=(2, 3), stride=(1, 1), padding=(1, 1))
          (selu): SELU(inplace=True)
          (bn2): BatchNorm2d(32, eps=1e-05, momentum=0.1, affine=True, track_running_stats=True)
          (conv2): Conv2d(32, 32, kernel_size=(2, 3), stride=(1, 1), padding=(0, 1))
          (conv_downsample): Conv2d(1, 32, kernel_size=(1, 3), stride=(1, 1), padding=(0, 1))
        )
      )
      (1): Sequential(
        (0): Residual_block(
          (bn1): BatchNorm2d(32, eps=1e-05, momentum=0.1, affine=True, track_running_stats=True)
          (conv1): Conv2d(32, 32, kernel_size=(2, 3), stride=(1, 1), padding=(1, 1))
          (selu): SELU(inplace=True)
          (bn2): BatchNorm2d(32, eps=1e-05, momentum=0.1, affine=True, track_running_stats=True)
          (conv2): Conv2d(32, 32, kernel_size=(2, 3), stride=(1, 1), padding=(0, 1))
        )
      )
      (2): Sequential(
        (0): Residual_block(
          (bn1): BatchNorm2d(32, eps=1e-05, momentum=0.1, affine=True, track_running_stats=True)
          (conv1): Conv2d(32, 64, kernel_size=(2, 3), stride=(1, 1), padding=(1, 1))
          (selu): SELU(inplace=True)
          (bn2): BatchNorm2d(64, eps=1e-05, momentum=0.1, affine=True, track_running_stats=True)
          (conv2): Conv2d(64, 64, kernel_size=(2, 3), stride=(1, 1), padding=(0, 1))
          (conv_downsample): Conv2d(32, 64, kernel_size=(1, 3), stride=(1, 1), padding=(0, 1))
        )
      )
      (3): Sequential(
        (0): Residual_block(
          (bn1): BatchNorm2d(64, eps=1e-05, momentum=0.1, affine=True, track_running_stats=True)
          (conv1): Conv2d(64, 64, kernel_size=(2, 3), stride=(1, 1), padding=(1, 1))
          (selu): SELU(inplace=True)
          (bn2): BatchNorm2d(64, eps=1e-05, momentum=0.1, affine=True, track_running_stats=True)
          (conv2): Conv2d(64, 64, kernel_size=(2, 3), stride=(1, 1), padding=(0, 1))
        )
      )
      (4): Sequential(
        (0): Residual_block(
          (bn1): BatchNorm2d(64, eps=1e-05, momentum=0.1, affine=True, track_running_stats=True)
          (conv1): Conv2d(64, 64, kernel_size=(2, 3), stride=(1, 1), padding=(1, 1))
          (selu): SELU(inplace=True)
          (bn2): BatchNorm2d(64, eps=1e-05, momentum=0.1, affine=True, track_running_stats=True)
          (conv2): Conv2d(64, 64, kernel_size=(2, 3), stride=(1, 1), padding=(0, 1))
        )
      )
      (5): Sequential(
        (0): Residual_block(
          (bn1): BatchNorm2d(64, eps=1e-05, momentum=0.1, affine=True, track_running_stats=True)
          (conv1): Conv2d(64, 64, kernel_size=(2, 3), stride=(1, 1), padding=(1, 1))
          (selu): SELU(inplace=True)
          (bn2): BatchNorm2d(64, eps=1e-05, momentum=0.1, affine=True, track_running_stats=True)
          (conv2): Conv2d(64, 64, kernel_size=(2, 3), stride=(1, 1), padding=(0, 1))
        )
      )
    )
    (attention): Sequential(
      (0): Conv2d(64, 128, kernel_size=(1, 1), stride=(1, 1))
      (1): SELU(inplace=True)
      (2): BatchNorm2d(128, eps=1e-05, momentum=0.1, affine=True, track_running_stats=True)
      (3): Conv2d(128, 64, kernel_size=(1, 1), stride=(1, 1))
    )
    (GAT_layer_S): GraphAttentionLayer(
      (att_proj): Linear(in_features=64, out_features=64, bias=True)
      (proj_with_att): Linear(in_features=64, out_features=64, bias=True)
      (proj_without_att): Linear(in_features=64, out_features=64, bias=True)
      (bn): BatchNorm1d(64, eps=1e-05, momentum=0.1, affine=True, track_running_stats=True)
      (input_drop): Dropout(p=0.2, inplace=False)
      (act): SELU(inplace=True)
    )
    (GAT_layer_T): GraphAttentionLayer(
      (att_proj): Linear(in_features=64, out_features=64, bias=True)
      (proj_with_att): Linear(in_features=64, out_features=64, bias=True)
      (proj_without_att): Linear(in_features=64, out_features=64, bias=True)
      (bn): BatchNorm1d(64, eps=1e-05, momentum=0.1, affine=True, track_running_stats=True)
      (input_drop): Dropout(p=0.2, inplace=False)
      (act): SELU(inplace=True)
    )
    (HtrgGAT_layer_ST11): HtrgGraphAttentionLayer(
      (proj_type1): Linear(in_features=64, out_features=64, bias=True)
      (proj_type2): Linear(in_features=64, out_features=64, bias=True)
      (att_proj): Linear(in_features=64, out_features=32, bias=True)
      (att_projM): Linear(in_features=64, out_features=32, bias=True)
      (proj_with_att): Linear(in_features=64, out_features=32, bias=True)
      (proj_without_att): Linear(in_features=64, out_features=32, bias=True)
      (proj_with_attM): Linear(in_features=64, out_features=32, bias=True)
      (proj_without_attM): Linear(in_features=64, out_features=32, bias=True)
      (bn): BatchNorm1d(32, eps=1e-05, momentum=0.1, affine=True, track_running_stats=True)
      (input_drop): Dropout(p=0.2, inplace=False)
      (act): SELU(inplace=True)
    )
    (HtrgGAT_layer_ST12): HtrgGraphAttentionLayer(
      (proj_type1): Linear(in_features=32, out_features=32, bias=True)
      (proj_type2): Linear(in_features=32, out_features=32, bias=True)
      (att_proj): Linear(in_features=32, out_features=32, bias=True)
      (att_projM): Linear(in_features=32, out_features=32, bias=True)
      (proj_with_att): Linear(in_features=32, out_features=32, bias=True)
      (proj_without_att): Linear(in_features=32, out_features=32, bias=True)
      (proj_with_attM): Linear(in_features=32, out_features=32, bias=True)
      (proj_without_attM): Linear(in_features=32, out_features=32, bias=True)
      (bn): BatchNorm1d(32, eps=1e-05, momentum=0.1, affine=True, track_running_stats=True)
      (input_drop): Dropout(p=0.2, inplace=False)
      (act): SELU(inplace=True)
    )
    (HtrgGAT_layer_ST21): HtrgGraphAttentionLayer(
      (proj_type1): Linear(in_features=64, out_features=64, bias=True)
      (proj_type2): Linear(in_features=64, out_features=64, bias=True)
      (att_proj): Linear(in_features=64, out_features=32, bias=True)
      (att_projM): Linear(in_features=64, out_features=32, bias=True)
      (proj_with_att): Linear(in_features=64, out_features=32, bias=True)
      (proj_without_att): Linear(in_features=64, out_features=32, bias=True)
      (proj_with_attM): Linear(in_features=64, out_features=32, bias=True)
      (proj_without_attM): Linear(in_features=64, out_features=32, bias=True)
      (bn): BatchNorm1d(32, eps=1e-05, momentum=0.1, affine=True, track_running_stats=True)
      (input_drop): Dropout(p=0.2, inplace=False)
      (act): SELU(inplace=True)
    )
    (HtrgGAT_layer_ST22): HtrgGraphAttentionLayer(
      (proj_type1): Linear(in_features=32, out_features=32, bias=True)
      (proj_type2): Linear(in_features=32, out_features=32, bias=True)
      (att_proj): Linear(in_features=32, out_features=32, bias=True)
      (att_projM): Linear(in_features=32, out_features=32, bias=True)
      (proj_with_att): Linear(in_features=32, out_features=32, bias=True)
      (proj_without_att): Linear(in_features=32, out_features=32, bias=True)
      (proj_with_attM): Linear(in_features=32, out_features=32, bias=True)
      (proj_without_attM): Linear(in_features=32, out_features=32, bias=True)
      (bn): BatchNorm1d(32, eps=1e-05, momentum=0.1, affine=True, track_running_stats=True)
      (input_drop): Dropout(p=0.2, inplace=False)
      (act): SELU(inplace=True)
    )
    (pool_S): GraphPool(
      (sigmoid): Sigmoid()
      (proj): Linear(in_features=64, out_features=1, bias=True)
      (drop): Dropout(p=0.3, inplace=False)
    )
    (pool_T): GraphPool(
      (sigmoid): Sigmoid()
      (proj): Linear(in_features=64, out_features=1, bias=True)
      (drop): Dropout(p=0.3, inplace=False)
    )
    (pool_hS1): GraphPool(
      (sigmoid): Sigmoid()
      (proj): Linear(in_features=32, out_features=1, bias=True)
      (drop): Dropout(p=0.3, inplace=False)
    )
    (pool_hT1): GraphPool(
      (sigmoid): Sigmoid()
      (proj): Linear(in_features=32, out_features=1, bias=True)
      (drop): Dropout(p=0.3, inplace=False)
    )
    (pool_hS2): GraphPool(
      (sigmoid): Sigmoid()
      (proj): Linear(in_features=32, out_features=1, bias=True)
      (drop): Dropout(p=0.3, inplace=False)
    )
    (pool_hT2): GraphPool(
      (sigmoid): Sigmoid()
      (proj): Linear(in_features=32, out_features=1, bias=True)
      (drop): Dropout(p=0.3, inplace=False)
    )
    (out_layer): Linear(in_features=160, out_features=2, bias=True)
  )
  (aasist_speech): XLSR2_AASIST(
    (ssl_model): SSLModel(
      (model): Wav2Vec2Model(
        (feature_extractor): ConvFeatureExtractionModel(
          (conv_layers): ModuleList(
            (0): Sequential(
              (0): Conv1d(1, 512, kernel_size=(10,), stride=(5,))
              (1): Dropout(p=0.0, inplace=False)
              (2): Sequential(
                (0): TransposeLast()
                (1): Fp32LayerNorm((512,), eps=1e-05, elementwise_affine=True)
                (2): TransposeLast()
              )
              (3): GELU(approximate='none')
            )
            (1-4): 4 x Sequential(
              (0): Conv1d(512, 512, kernel_size=(3,), stride=(2,))
              (1): Dropout(p=0.0, inplace=False)
              (2): Sequential(
                (0): TransposeLast()
                (1): Fp32LayerNorm((512,), eps=1e-05, elementwise_affine=True)
                (2): TransposeLast()
              )
              (3): GELU(approximate='none')
            )
            (5-6): 2 x Sequential(
              (0): Conv1d(512, 512, kernel_size=(2,), stride=(2,))
              (1): Dropout(p=0.0, inplace=False)
              (2): Sequential(
                (0): TransposeLast()
                (1): Fp32LayerNorm((512,), eps=1e-05, elementwise_affine=True)
                (2): TransposeLast()
              )
              (3): GELU(approximate='none')
            )
          )
        )
        (post_extract_proj): Linear(in_features=512, out_features=1024, bias=True)
        (dropout_input): Dropout(p=0.0, inplace=False)
        (dropout_features): Dropout(p=0.0, inplace=False)
        (quantizer): GumbelVectorQuantizer(
          (weight_proj): Linear(in_features=512, out_features=640, bias=True)
        )
        (project_q): Linear(in_features=768, out_features=768, bias=True)
        (encoder): TransformerEncoder(
          (pos_conv): Sequential(
            (0): Conv1d(1024, 1024, kernel_size=(128,), stride=(1,), padding=(64,), groups=16)
            (1): SamePad()
            (2): GELU(approximate='none')
          )
          (layers): ModuleList(
            (0-23): 24 x TransformerSentenceEncoderLayer(
              (self_attn): MultiheadAttention(
                (dropout_module): FairseqDropout()
                (k_proj): Linear(in_features=1024, out_features=1024, bias=True)
                (v_proj): Linear(in_features=1024, out_features=1024, bias=True)
                (q_proj): Linear(in_features=1024, out_features=1024, bias=True)
                (out_proj): Linear(in_features=1024, out_features=1024, bias=True)
              )
              (dropout1): Dropout(p=0.0, inplace=False)
              (dropout2): Dropout(p=0.0, inplace=False)
              (dropout3): Dropout(p=0.0, inplace=False)
              (self_attn_layer_norm): LayerNorm((1024,), eps=1e-05, elementwise_affine=True)
              (fc1): Linear(in_features=1024, out_features=4096, bias=True)
              (fc2): Linear(in_features=4096, out_features=1024, bias=True)
              (final_layer_norm): LayerNorm((1024,), eps=1e-05, elementwise_affine=True)
            )
          )
          (layer_norm): LayerNorm((1024,), eps=1e-05, elementwise_affine=True)
        )
        (layer_norm): LayerNorm((512,), eps=1e-05, elementwise_affine=True)
        (final_proj): Linear(in_features=1024, out_features=768, bias=True)
      )
    )
    (LL): Linear(in_features=1024, out_features=128, bias=True)
    (first_bn): BatchNorm2d(1, eps=1e-05, momentum=0.1, affine=True, track_running_stats=True)
    (first_bn1): BatchNorm2d(64, eps=1e-05, momentum=0.1, affine=True, track_running_stats=True)
    (drop): Dropout(p=0.5, inplace=True)
    (drop_way): Dropout(p=0.2, inplace=True)
    (selu): SELU(inplace=True)
    (encoder): Sequential(
      (0): Sequential(
        (0): Residual_block(
          (conv1): Conv2d(1, 32, kernel_size=(2, 3), stride=(1, 1), padding=(1, 1))
          (selu): SELU(inplace=True)
          (bn2): BatchNorm2d(32, eps=1e-05, momentum=0.1, affine=True, track_running_stats=True)
          (conv2): Conv2d(32, 32, kernel_size=(2, 3), stride=(1, 1), padding=(0, 1))
          (conv_downsample): Conv2d(1, 32, kernel_size=(1, 3), stride=(1, 1), padding=(0, 1))
        )
      )
      (1): Sequential(
        (0): Residual_block(
          (bn1): BatchNorm2d(32, eps=1e-05, momentum=0.1, affine=True, track_running_stats=True)
          (conv1): Conv2d(32, 32, kernel_size=(2, 3), stride=(1, 1), padding=(1, 1))
          (selu): SELU(inplace=True)
          (bn2): BatchNorm2d(32, eps=1e-05, momentum=0.1, affine=True, track_running_stats=True)
          (conv2): Conv2d(32, 32, kernel_size=(2, 3), stride=(1, 1), padding=(0, 1))
        )
      )
      (2): Sequential(
        (0): Residual_block(
          (bn1): BatchNorm2d(32, eps=1e-05, momentum=0.1, affine=True, track_running_stats=True)
          (conv1): Conv2d(32, 64, kernel_size=(2, 3), stride=(1, 1), padding=(1, 1))
          (selu): SELU(inplace=True)
          (bn2): BatchNorm2d(64, eps=1e-05, momentum=0.1, affine=True, track_running_stats=True)
          (conv2): Conv2d(64, 64, kernel_size=(2, 3), stride=(1, 1), padding=(0, 1))
          (conv_downsample): Conv2d(32, 64, kernel_size=(1, 3), stride=(1, 1), padding=(0, 1))
        )
      )
      (3): Sequential(
        (0): Residual_block(
          (bn1): BatchNorm2d(64, eps=1e-05, momentum=0.1, affine=True, track_running_stats=True)
          (conv1): Conv2d(64, 64, kernel_size=(2, 3), stride=(1, 1), padding=(1, 1))
          (selu): SELU(inplace=True)
          (bn2): BatchNorm2d(64, eps=1e-05, momentum=0.1, affine=True, track_running_stats=True)
          (conv2): Conv2d(64, 64, kernel_size=(2, 3), stride=(1, 1), padding=(0, 1))
        )
      )
      (4): Sequential(
        (0): Residual_block(
          (bn1): BatchNorm2d(64, eps=1e-05, momentum=0.1, affine=True, track_running_stats=True)
          (conv1): Conv2d(64, 64, kernel_size=(2, 3), stride=(1, 1), padding=(1, 1))
          (selu): SELU(inplace=True)
          (bn2): BatchNorm2d(64, eps=1e-05, momentum=0.1, affine=True, track_running_stats=True)
          (conv2): Conv2d(64, 64, kernel_size=(2, 3), stride=(1, 1), padding=(0, 1))
        )
      )
      (5): Sequential(
        (0): Residual_block(
          (bn1): BatchNorm2d(64, eps=1e-05, momentum=0.1, affine=True, track_running_stats=True)
          (conv1): Conv2d(64, 64, kernel_size=(2, 3), stride=(1, 1), padding=(1, 1))
          (selu): SELU(inplace=True)
          (bn2): BatchNorm2d(64, eps=1e-05, momentum=0.1, affine=True, track_running_stats=True)
          (conv2): Conv2d(64, 64, kernel_size=(2, 3), stride=(1, 1), padding=(0, 1))
        )
      )
    )
    (attention): Sequential(
      (0): Conv2d(64, 128, kernel_size=(1, 1), stride=(1, 1))
      (1): SELU(inplace=True)
      (2): BatchNorm2d(128, eps=1e-05, momentum=0.1, affine=True, track_running_stats=True)
      (3): Conv2d(128, 64, kernel_size=(1, 1), stride=(1, 1))
    )
    (GAT_layer_S): GraphAttentionLayer(
      (att_proj): Linear(in_features=64, out_features=64, bias=True)
      (proj_with_att): Linear(in_features=64, out_features=64, bias=True)
      (proj_without_att): Linear(in_features=64, out_features=64, bias=True)
      (bn): BatchNorm1d(64, eps=1e-05, momentum=0.1, affine=True, track_running_stats=True)
      (input_drop): Dropout(p=0.2, inplace=False)
      (act): SELU(inplace=True)
    )
    (GAT_layer_T): GraphAttentionLayer(
      (att_proj): Linear(in_features=64, out_features=64, bias=True)
      (proj_with_att): Linear(in_features=64, out_features=64, bias=True)
      (proj_without_att): Linear(in_features=64, out_features=64, bias=True)
      (bn): BatchNorm1d(64, eps=1e-05, momentum=0.1, affine=True, track_running_stats=True)
      (input_drop): Dropout(p=0.2, inplace=False)
      (act): SELU(inplace=True)
    )
    (HtrgGAT_layer_ST11): HtrgGraphAttentionLayer(
      (proj_type1): Linear(in_features=64, out_features=64, bias=True)
      (proj_type2): Linear(in_features=64, out_features=64, bias=True)
      (att_proj): Linear(in_features=64, out_features=32, bias=True)
      (att_projM): Linear(in_features=64, out_features=32, bias=True)
      (proj_with_att): Linear(in_features=64, out_features=32, bias=True)
      (proj_without_att): Linear(in_features=64, out_features=32, bias=True)
      (proj_with_attM): Linear(in_features=64, out_features=32, bias=True)
      (proj_without_attM): Linear(in_features=64, out_features=32, bias=True)
      (bn): BatchNorm1d(32, eps=1e-05, momentum=0.1, affine=True, track_running_stats=True)
      (input_drop): Dropout(p=0.2, inplace=False)
      (act): SELU(inplace=True)
    )
    (HtrgGAT_layer_ST12): HtrgGraphAttentionLayer(
      (proj_type1): Linear(in_features=32, out_features=32, bias=True)
      (proj_type2): Linear(in_features=32, out_features=32, bias=True)
      (att_proj): Linear(in_features=32, out_features=32, bias=True)
      (att_projM): Linear(in_features=32, out_features=32, bias=True)
      (proj_with_att): Linear(in_features=32, out_features=32, bias=True)
      (proj_without_att): Linear(in_features=32, out_features=32, bias=True)
      (proj_with_attM): Linear(in_features=32, out_features=32, bias=True)
      (proj_without_attM): Linear(in_features=32, out_features=32, bias=True)
      (bn): BatchNorm1d(32, eps=1e-05, momentum=0.1, affine=True, track_running_stats=True)
      (input_drop): Dropout(p=0.2, inplace=False)
      (act): SELU(inplace=True)
    )
    (HtrgGAT_layer_ST21): HtrgGraphAttentionLayer(
      (proj_type1): Linear(in_features=64, out_features=64, bias=True)
      (proj_type2): Linear(in_features=64, out_features=64, bias=True)
      (att_proj): Linear(in_features=64, out_features=32, bias=True)
      (att_projM): Linear(in_features=64, out_features=32, bias=True)
      (proj_with_att): Linear(in_features=64, out_features=32, bias=True)
      (proj_without_att): Linear(in_features=64, out_features=32, bias=True)
      (proj_with_attM): Linear(in_features=64, out_features=32, bias=True)
      (proj_without_attM): Linear(in_features=64, out_features=32, bias=True)
      (bn): BatchNorm1d(32, eps=1e-05, momentum=0.1, affine=True, track_running_stats=True)
      (input_drop): Dropout(p=0.2, inplace=False)
      (act): SELU(inplace=True)
    )
    (HtrgGAT_layer_ST22): HtrgGraphAttentionLayer(
      (proj_type1): Linear(in_features=32, out_features=32, bias=True)
      (proj_type2): Linear(in_features=32, out_features=32, bias=True)
      (att_proj): Linear(in_features=32, out_features=32, bias=True)
      (att_projM): Linear(in_features=32, out_features=32, bias=True)
      (proj_with_att): Linear(in_features=32, out_features=32, bias=True)
      (proj_without_att): Linear(in_features=32, out_features=32, bias=True)
      (proj_with_attM): Linear(in_features=32, out_features=32, bias=True)
      (proj_without_attM): Linear(in_features=32, out_features=32, bias=True)
      (bn): BatchNorm1d(32, eps=1e-05, momentum=0.1, affine=True, track_running_stats=True)
      (input_drop): Dropout(p=0.2, inplace=False)
      (act): SELU(inplace=True)
    )
    (pool_S): GraphPool(
      (sigmoid): Sigmoid()
      (proj): Linear(in_features=64, out_features=1, bias=True)
      (drop): Dropout(p=0.3, inplace=False)
    )
    (pool_T): GraphPool(
      (sigmoid): Sigmoid()
      (proj): Linear(in_features=64, out_features=1, bias=True)
      (drop): Dropout(p=0.3, inplace=False)
    )
    (pool_hS1): GraphPool(
      (sigmoid): Sigmoid()
      (proj): Linear(in_features=32, out_features=1, bias=True)
      (drop): Dropout(p=0.3, inplace=False)
    )
    (pool_hT1): GraphPool(
      (sigmoid): Sigmoid()
      (proj): Linear(in_features=32, out_features=1, bias=True)
      (drop): Dropout(p=0.3, inplace=False)
    )
    (pool_hS2): GraphPool(
      (sigmoid): Sigmoid()
      (proj): Linear(in_features=32, out_features=1, bias=True)
      (drop): Dropout(p=0.3, inplace=False)
    )
    (pool_hT2): GraphPool(
      (sigmoid): Sigmoid()
      (proj): Linear(in_features=32, out_features=1, bias=True)
      (drop): Dropout(p=0.3, inplace=False)
    )
    (out_layer): Linear(in_features=160, out_features=2, bias=True)
  )
  (aasist_env): XLSR2_AASIST(
    (ssl_model): SSLModel(
      (model): Wav2Vec2Model(
        (feature_extractor): ConvFeatureExtractionModel(
          (conv_layers): ModuleList(
            (0): Sequential(
              (0): Conv1d(1, 512, kernel_size=(10,), stride=(5,))
              (1): Dropout(p=0.0, inplace=False)
              (2): Sequential(
                (0): TransposeLast()
                (1): Fp32LayerNorm((512,), eps=1e-05, elementwise_affine=True)
                (2): TransposeLast()
              )
              (3): GELU(approximate='none')
            )
            (1-4): 4 x Sequential(
              (0): Conv1d(512, 512, kernel_size=(3,), stride=(2,))
              (1): Dropout(p=0.0, inplace=False)
              (2): Sequential(
                (0): TransposeLast()
                (1): Fp32LayerNorm((512,), eps=1e-05, elementwise_affine=True)
                (2): TransposeLast()
              )
              (3): GELU(approximate='none')
            )
            (5-6): 2 x Sequential(
              (0): Conv1d(512, 512, kernel_size=(2,), stride=(2,))
              (1): Dropout(p=0.0, inplace=False)
              (2): Sequential(
                (0): TransposeLast()
                (1): Fp32LayerNorm((512,), eps=1e-05, elementwise_affine=True)
                (2): TransposeLast()
              )
              (3): GELU(approximate='none')
            )
          )
        )
        (post_extract_proj): Linear(in_features=512, out_features=1024, bias=True)
        (dropout_input): Dropout(p=0.0, inplace=False)
        (dropout_features): Dropout(p=0.0, inplace=False)
        (quantizer): GumbelVectorQuantizer(
          (weight_proj): Linear(in_features=512, out_features=640, bias=True)
        )
        (project_q): Linear(in_features=768, out_features=768, bias=True)
        (encoder): TransformerEncoder(
          (pos_conv): Sequential(
            (0): Conv1d(1024, 1024, kernel_size=(128,), stride=(1,), padding=(64,), groups=16)
            (1): SamePad()
            (2): GELU(approximate='none')
          )
          (layers): ModuleList(
            (0-23): 24 x TransformerSentenceEncoderLayer(
              (self_attn): MultiheadAttention(
                (dropout_module): FairseqDropout()
                (k_proj): Linear(in_features=1024, out_features=1024, bias=True)
                (v_proj): Linear(in_features=1024, out_features=1024, bias=True)
                (q_proj): Linear(in_features=1024, out_features=1024, bias=True)
                (out_proj): Linear(in_features=1024, out_features=1024, bias=True)
              )
              (dropout1): Dropout(p=0.0, inplace=False)
              (dropout2): Dropout(p=0.0, inplace=False)
              (dropout3): Dropout(p=0.0, inplace=False)
              (self_attn_layer_norm): LayerNorm((1024,), eps=1e-05, elementwise_affine=True)
              (fc1): Linear(in_features=1024, out_features=4096, bias=True)
              (fc2): Linear(in_features=4096, out_features=1024, bias=True)
              (final_layer_norm): LayerNorm((1024,), eps=1e-05, elementwise_affine=True)
            )
          )
          (layer_norm): LayerNorm((1024,), eps=1e-05, elementwise_affine=True)
        )
        (layer_norm): LayerNorm((512,), eps=1e-05, elementwise_affine=True)
        (final_proj): Linear(in_features=1024, out_features=768, bias=True)
      )
    )
    (LL): Linear(in_features=1024, out_features=128, bias=True)
    (first_bn): BatchNorm2d(1, eps=1e-05, momentum=0.1, affine=True, track_running_stats=True)
    (first_bn1): BatchNorm2d(64, eps=1e-05, momentum=0.1, affine=True, track_running_stats=True)
    (drop): Dropout(p=0.5, inplace=True)
    (drop_way): Dropout(p=0.2, inplace=True)
    (selu): SELU(inplace=True)
    (encoder): Sequential(
      (0): Sequential(
        (0): Residual_block(
          (conv1): Conv2d(1, 32, kernel_size=(2, 3), stride=(1, 1), padding=(1, 1))
          (selu): SELU(inplace=True)
          (bn2): BatchNorm2d(32, eps=1e-05, momentum=0.1, affine=True, track_running_stats=True)
          (conv2): Conv2d(32, 32, kernel_size=(2, 3), stride=(1, 1), padding=(0, 1))
          (conv_downsample): Conv2d(1, 32, kernel_size=(1, 3), stride=(1, 1), padding=(0, 1))
        )
      )
      (1): Sequential(
        (0): Residual_block(
          (bn1): BatchNorm2d(32, eps=1e-05, momentum=0.1, affine=True, track_running_stats=True)
          (conv1): Conv2d(32, 32, kernel_size=(2, 3), stride=(1, 1), padding=(1, 1))
          (selu): SELU(inplace=True)
          (bn2): BatchNorm2d(32, eps=1e-05, momentum=0.1, affine=True, track_running_stats=True)
          (conv2): Conv2d(32, 32, kernel_size=(2, 3), stride=(1, 1), padding=(0, 1))
        )
      )
      (2): Sequential(
        (0): Residual_block(
          (bn1): BatchNorm2d(32, eps=1e-05, momentum=0.1, affine=True, track_running_stats=True)
          (conv1): Conv2d(32, 64, kernel_size=(2, 3), stride=(1, 1), padding=(1, 1))
          (selu): SELU(inplace=True)
          (bn2): BatchNorm2d(64, eps=1e-05, momentum=0.1, affine=True, track_running_stats=True)
          (conv2): Conv2d(64, 64, kernel_size=(2, 3), stride=(1, 1), padding=(0, 1))
          (conv_downsample): Conv2d(32, 64, kernel_size=(1, 3), stride=(1, 1), padding=(0, 1))
        )
      )
      (3): Sequential(
        (0): Residual_block(
          (bn1): BatchNorm2d(64, eps=1e-05, momentum=0.1, affine=True, track_running_stats=True)
          (conv1): Conv2d(64, 64, kernel_size=(2, 3), stride=(1, 1), padding=(1, 1))
          (selu): SELU(inplace=True)
          (bn2): BatchNorm2d(64, eps=1e-05, momentum=0.1, affine=True, track_running_stats=True)
          (conv2): Conv2d(64, 64, kernel_size=(2, 3), stride=(1, 1), padding=(0, 1))
        )
      )
      (4): Sequential(
        (0): Residual_block(
          (bn1): BatchNorm2d(64, eps=1e-05, momentum=0.1, affine=True, track_running_stats=True)
          (conv1): Conv2d(64, 64, kernel_size=(2, 3), stride=(1, 1), padding=(1, 1))
          (selu): SELU(inplace=True)
          (bn2): BatchNorm2d(64, eps=1e-05, momentum=0.1, affine=True, track_running_stats=True)
          (conv2): Conv2d(64, 64, kernel_size=(2, 3), stride=(1, 1), padding=(0, 1))
        )
      )
      (5): Sequential(
        (0): Residual_block(
          (bn1): BatchNorm2d(64, eps=1e-05, momentum=0.1, affine=True, track_running_stats=True)
          (conv1): Conv2d(64, 64, kernel_size=(2, 3), stride=(1, 1), padding=(1, 1))
          (selu): SELU(inplace=True)
          (bn2): BatchNorm2d(64, eps=1e-05, momentum=0.1, affine=True, track_running_stats=True)
          (conv2): Conv2d(64, 64, kernel_size=(2, 3), stride=(1, 1), padding=(0, 1))
        )
      )
    )
    (attention): Sequential(
      (0): Conv2d(64, 128, kernel_size=(1, 1), stride=(1, 1))
      (1): SELU(inplace=True)
      (2): BatchNorm2d(128, eps=1e-05, momentum=0.1, affine=True, track_running_stats=True)
      (3): Conv2d(128, 64, kernel_size=(1, 1), stride=(1, 1))
    )
    (GAT_layer_S): GraphAttentionLayer(
      (att_proj): Linear(in_features=64, out_features=64, bias=True)
      (proj_with_att): Linear(in_features=64, out_features=64, bias=True)
      (proj_without_att): Linear(in_features=64, out_features=64, bias=True)
      (bn): BatchNorm1d(64, eps=1e-05, momentum=0.1, affine=True, track_running_stats=True)
      (input_drop): Dropout(p=0.2, inplace=False)
      (act): SELU(inplace=True)
    )
    (GAT_layer_T): GraphAttentionLayer(
      (att_proj): Linear(in_features=64, out_features=64, bias=True)
      (proj_with_att): Linear(in_features=64, out_features=64, bias=True)
      (proj_without_att): Linear(in_features=64, out_features=64, bias=True)
      (bn): BatchNorm1d(64, eps=1e-05, momentum=0.1, affine=True, track_running_stats=True)
      (input_drop): Dropout(p=0.2, inplace=False)
      (act): SELU(inplace=True)
    )
    (HtrgGAT_layer_ST11): HtrgGraphAttentionLayer(
      (proj_type1): Linear(in_features=64, out_features=64, bias=True)
      (proj_type2): Linear(in_features=64, out_features=64, bias=True)
      (att_proj): Linear(in_features=64, out_features=32, bias=True)
      (att_projM): Linear(in_features=64, out_features=32, bias=True)
      (proj_with_att): Linear(in_features=64, out_features=32, bias=True)
      (proj_without_att): Linear(in_features=64, out_features=32, bias=True)
      (proj_with_attM): Linear(in_features=64, out_features=32, bias=True)
      (proj_without_attM): Linear(in_features=64, out_features=32, bias=True)
      (bn): BatchNorm1d(32, eps=1e-05, momentum=0.1, affine=True, track_running_stats=True)
      (input_drop): Dropout(p=0.2, inplace=False)
      (act): SELU(inplace=True)
    )
    (HtrgGAT_layer_ST12): HtrgGraphAttentionLayer(
      (proj_type1): Linear(in_features=32, out_features=32, bias=True)
      (proj_type2): Linear(in_features=32, out_features=32, bias=True)
      (att_proj): Linear(in_features=32, out_features=32, bias=True)
      (att_projM): Linear(in_features=32, out_features=32, bias=True)
      (proj_with_att): Linear(in_features=32, out_features=32, bias=True)
      (proj_without_att): Linear(in_features=32, out_features=32, bias=True)
      (proj_with_attM): Linear(in_features=32, out_features=32, bias=True)
      (proj_without_attM): Linear(in_features=32, out_features=32, bias=True)
      (bn): BatchNorm1d(32, eps=1e-05, momentum=0.1, affine=True, track_running_stats=True)
      (input_drop): Dropout(p=0.2, inplace=False)
      (act): SELU(inplace=True)
    )
    (HtrgGAT_layer_ST21): HtrgGraphAttentionLayer(
      (proj_type1): Linear(in_features=64, out_features=64, bias=True)
      (proj_type2): Linear(in_features=64, out_features=64, bias=True)
      (att_proj): Linear(in_features=64, out_features=32, bias=True)
      (att_projM): Linear(in_features=64, out_features=32, bias=True)
      (proj_with_att): Linear(in_features=64, out_features=32, bias=True)
      (proj_without_att): Linear(in_features=64, out_features=32, bias=True)
      (proj_with_attM): Linear(in_features=64, out_features=32, bias=True)
      (proj_without_attM): Linear(in_features=64, out_features=32, bias=True)
      (bn): BatchNorm1d(32, eps=1e-05, momentum=0.1, affine=True, track_running_stats=True)
      (input_drop): Dropout(p=0.2, inplace=False)
      (act): SELU(inplace=True)
    )
    (HtrgGAT_layer_ST22): HtrgGraphAttentionLayer(
      (proj_type1): Linear(in_features=32, out_features=32, bias=True)
      (proj_type2): Linear(in_features=32, out_features=32, bias=True)
      (att_proj): Linear(in_features=32, out_features=32, bias=True)
      (att_projM): Linear(in_features=32, out_features=32, bias=True)
      (proj_with_att): Linear(in_features=32, out_features=32, bias=True)
      (proj_without_att): Linear(in_features=32, out_features=32, bias=True)
      (proj_with_attM): Linear(in_features=32, out_features=32, bias=True)
      (proj_without_attM): Linear(in_features=32, out_features=32, bias=True)
      (bn): BatchNorm1d(32, eps=1e-05, momentum=0.1, affine=True, track_running_stats=True)
      (input_drop): Dropout(p=0.2, inplace=False)
      (act): SELU(inplace=True)
    )
    (pool_S): GraphPool(
      (sigmoid): Sigmoid()
      (proj): Linear(in_features=64, out_features=1, bias=True)
      (drop): Dropout(p=0.3, inplace=False)
    )
    (pool_T): GraphPool(
      (sigmoid): Sigmoid()
      (proj): Linear(in_features=64, out_features=1, bias=True)
      (drop): Dropout(p=0.3, inplace=False)
    )
    (pool_hS1): GraphPool(
      (sigmoid): Sigmoid()
      (proj): Linear(in_features=32, out_features=1, bias=True)
      (drop): Dropout(p=0.3, inplace=False)
    )
    (pool_hT1): GraphPool(
      (sigmoid): Sigmoid()
      (proj): Linear(in_features=32, out_features=1, bias=True)
      (drop): Dropout(p=0.3, inplace=False)
    )
    (pool_hS2): GraphPool(
      (sigmoid): Sigmoid()
      (proj): Linear(in_features=32, out_features=1, bias=True)
      (drop): Dropout(p=0.3, inplace=False)
    )
    (pool_hT2): GraphPool(
      (sigmoid): Sigmoid()
      (proj): Linear(in_features=32, out_features=1, bias=True)
      (drop): Dropout(p=0.3, inplace=False)
    )
    (out_layer): Linear(in_features=160, out_features=2, bias=True)
  )
)
2025-09-03 08:52:43 | INFO | /SMIIPdata2/zxp/composition_antispoofing/Unet/weight/batch_64_epoch_100/trainer.log | Loading model to GPUs:(0, 1, 2, 3), #param: 1271.37M
2025-09-03 08:52:43 | INFO | /SMIIPdata2/zxp/composition_antispoofing/Unet/weight/batch_64_epoch_100/trainer.log | Loss(time/N, lr=1.000e-03) - Epoch  1:
2025-09-03 08:52:43 | INFO | /SMIIPdata2/zxp/composition_antispoofing/Unet/weight/batch_64_epoch_100/trainer.log | Set train mode...
…
